Autonomous-Vehicle-Perception-System/kitti_cnn.pth (torch, 42072 bytes, 8 tensors)

conv1.weight f4 [16, 3, 3, 3]
-0.0305711 -0.20477822 -0.010059167 0.06262162 -0.2047409 -0.027213272 0.08743177 -0.14676619
-0.06944563 0.13385727 -0.21719554 -0.19476809 -0.1644774 -0.2120896 0.12404457 -0.19472033
-0.038606282 0.0022415195 0.093986996 0.100704074 -0.121477395 -0.107988805 0.11090425 0.013069075
-0.08065568 -0.070767544 -0.026159316 0.17551635 0.07590637 -0.05982081 0.12625661 -0.102965325
-0.02580806 0.27169138 0.16729347 0.0868783 0.17187873 -0.086387925 -0.22569898 0.05136762
0.009521426 -0.21290681 0.23925509 0.08336489 -0.07036579 0.13836797 -0.030880054 -0.12447307
0.11538399 -0.101899594 -0.00034745267 -0.093087204 -0.14574957 -0.22101381 -0.03001281 -0.22347647
0.06134508 0.027818844 -0.08949092 -0.14474408 0.025763636 -0.17488489 0.043099653 0.13325588
0.14146246 -0.027528958 -0.027756466 0.16404101 -0.048323516 0.16746415 -0.12899384 0.12167115
-0.15929532 0.14509055 -0.112387165 0.179902 -0.026347825 0.15200077 -0.041255992 0.022137415
0.16864057 0.06766804 0.019795425 0.15267871 -0.17044376 0.05938379 0.1345788 -0.0038467958
-0.11723116 -0.05967948 -0.124924496 -0.24433924 -0.13667457 -0.00718395 -0.2347648 -0.1168708
-0.07534643 -0.025927342 -0.104407884 -0.025927322 0.0551714 0.16069433 0.117316715 0.16720687
0.00051512866 0.08625585 0.040066537 -0.09131595 0.2012826 0.22309262 -0.017658293 0.014093875
0.05288988 0.23117787 0.23238306 0.20889625 0.120717734 0.16589941 -0.11141979 0.13684945
-0.06076961 -0.09393659 0.19011034 -0.11438946 -0.019651148 0.12721013 0.15446833 0.08767043
0.05781304 0.19524668 -0.11428772 -0.15864417 -0.03372003 0.14186515 0.0027468638 0.20545976
-0.015529461 -0.11440941 0.060662203 0.109694906 0.22659278 0.08273903 -0.0028667059 0.21689504
0.19082254 0.071477465 -0.14723416 0.18782572 -0.16645828 0.016260255 0.063756056 -0.032928072
0.11380037 0.019864472 -0.005751997 0.18693863 -0.02937382 -0.021499766 0.18112451 0.14731747
-0.13468248 -0.1343222 -0.010345177 0.2447472 -0.02923274 0.12156956 0.2573836 0.23535998
0.1765187 0.19785912 0.05112019 -0.03603569 0.011505844 0.005109516 0.013373659 0.060603797
-0.09285956 -0.12538806 0.09462751 -0.033393376 0.115683034 0.22814451 0.2734134 0.14336902
0.0016017511 -0.07595349 -0.019232875 -0.116285 0.018789634 0.22440115 0.2946932 0.15984125
0.20325768 0.07341067 0.04132584 -0.06399301 0.12814888 0.29488835 0.075759575 0.032765668
-0.034986015 -0.0047577666 -0.085035674 0.20413361 -0.12959005 -0.10889033 -0.0031435378 0.22145975
0.042467605 -0.04850634 0.0757149 -0.10250264 0.07576183 0.12221635 0.16483271 0.09375599
0.28060055 0.17684321 0.19558607 0.29272592 0.04804857 0.1558419 0.13134325 0.16488633
0.25158033 0.10375018 0.14691712 -0.17466977 -0.114459634 0.12717274 0.074918866 -0.001326194
-0.11888863 0.11014371 0.14471401 0.081189275 0.04297475 -0.13139832 0.10253469 0.10731623
0.16904627 -0.118274584 0.14113826 -0.066588014 -0.0012698639 0.16449173 -0.007387013 0.121347375
0.115318514 -0.111110725 0.12621078 -0.06610687 0.19616428 0.1864007 0.031716302 0.16187067
00000000: 3e70 fabc 62b1 51be 34cf 24bc c43f 803d
00000010: 99a7 51be 5eee debc 6e0f b33d e049 16be
00000020: 8339 8ebd e111 093e 8268 5ebe 4971 47be
00000030: c36c 28be 042e 59be 140b fe3d c464 47be
00000040: 9f21 1ebd 75e6 123b 417c c03d f03d ce3d
00000050: 24c9 f8bd 3c29 ddbd c421 e33d ac1f 563c
00000060: ce2e a5bd 93ee 90bd 104c d6bc 8fba 333e
00000070: cd74 9b3d aa06 75bd 6a49 013e 7cdf d2bd
00000080: 6d6b d3bc 221b 8b3e fb4e 2b3e 40ed b13d
00000090: fa00 303e 27ec b0bd a21d 67be da66 523d
000000a0: c1ff 1b3c 3e04 5abe 49ff 743e 36bb aa3d
000000b0: f01b 90bd 55b0 0d3e 2bf8 fcbc bdeb febd
000000c0: 714e ec3d bcb0 d0bd 4f2a b6b9 81a4 bebd
000000d0: 603f 15be 7251 62be 6ddd f5bc 04d7 64be
000000e0: fb44 7b3d 58e4 e33c 0447 b7bd cb37 14be
000000f0: 430e d33c 0615 33be 4389 303d 3b74 083e
00000100: 89db 103e 6984 e1bc 8761 e3bc 5efa 273e
00000110: e1ee 45bd b97b 2b3e f616 04be b92e f93d
00000120: 501e 23be 9e92 143e 3e2b e6bd 3b38 383e
00000130: 65d7 d7bc 17a6 1b3e 0bfc 28bd 8659 b53c
00000140: 1db0 2c3e 8b95 8a3d 042a a23c cf57 1c3e
00000150: cf88 2ebe 6b3c 733d 06cf 093e 861a 7cbb
00000160: e416 f0bd 7872 74bd 6ad8 ffbd 1134 7abe
00000170: 6bf4 0bbe 5767 ebbb 2f66 70be f559 efbd
00000180: 3b4f 9abd 9465 d4bc cdd3 d5bd 8965 d4bc
00000190: 68fb 613d 0e8d 243e bf43 f03d 4738 2b3e
000001a0: b309 073a e8a6 b03d cf1c 243d db03 bbbd
000001b0: 071d 4e3e 6472 643e 20a8 90bc ffe9 663c
000001c0: 0fa3 583d e4b9 6c3e d3f5 6d3e e6e8 553e
000001d0: dc3a f73d 89e1 293e 0f30 e4bd 4322 0c3e
000001e0: 8ee9 78bd d461 c0bd 49ac 423e 0545 eabd
000001f0: 72fb a0bc 5f43 023e f22c 1e3e 8e8c b33d
00000200: 5ecd 6c3d bfee 473e ae0f eabd 9e73 22be
00000210: 041e 0abd 1945 113e ba04 343b 0b64 523e
00000220: 486f 7ebc 7b4f eabd ee78 783d b9a7 e03d
00000230: f007 683e 1573 a93d 58df 3bbb bc19 5e3e
00000240: fc66 433e c762 923d 8dc4 16be 6355 403e
00000250: 0a74 2abe 3a34 853c 8992 823d 96df 06bd
00000260: 2b10 e93d d1ba a23c 407b bcbb d76c 3f3e
00000270: 5ea1 f0bc 4720 b0bc b478 393e 64da 163e
00000280: 34ea 09be c28b 09be d17e 29bc 039f 7a3e
00000290: 8079 efbc 76f9 f83d c9c7 833e 3502 713e
000002a0: 51c1 343e 959b 4a3e 6863 513d 299a 13bd
000002b0: 0283 3c3c ba6d a73b 311d 5b3c b03b 783d
000002c0: 272d bebd ba65 00be 11cc c13d 7ec7 08bd
000002d0: 3aeb ec3d b79e 693e d7fc 8b3e 54cf 123e
000002e0: d9f1 d13a 818d 9bbd 438e 9dbc d526 eebd
000002f0: b8ec 993c 6ac9 653e 07e2 963e 6dad 233e
00000300: c822 503e 5558 963d 4945 293d c40e 83bd
00000310: 7639 033e 9bfb 963e d627 9b3d 4b35 063d
00000320: 7f4d 0fbd 0ae7 9bbb 2f27 aebd 6708 513e
00000330: 41b3 04be e501 dfbd d003 4ebb 58c6 623e
00000340: 83f2 2d3d 95ae 46bd 6a10 9b3d e7ec d1bd
00000350: 0529 9b3d 914c fa3d e8c9 283e 2403 c03d
00000360: e0aa 8f3e 6316 353e b747 483e 2ce0 953e
00000370: 94ce 443d 0595 1f3e d87e 063e f6d7 283e
00000380: 23cf 803e f97a d43d 7171 163e a2dc 32be
00000390: d069 eabd 9239 023e 106f 993d b0d3 adba
000003a0: e27b f3bd 0793 e13d e92f 143e 9046 a63d
000003b0: 4b06 303d 488d 06be b5fd d13d 9dc8 db3d
000003c0: 771a 2d3e f239 f2bd 8c86 103e 4c5f 88bd
000003d0: 9071 a6ba 8570 283e c20e f2bb f984 f83d
000003e0: 1d2c ec3d 058e e3bd 663d 013e 0a63 87bd
000003f0: 4adf 483e d3df 3e3e f4e8 013d 6dc1 253e

conv1.bias f4 [16]
0.10983576 0.021399325 0.115022115 0.19465457 -0.011167698 -0.12886606 -0.0023505893 -0.16579162
0.02623838 0.0054108533 -0.052157428 -0.19327553 0.04986634 -0.10904025 0.17820409 -0.10560647
00000000: 92f1 e03d a34d af3c b790 eb3d 8753 473e
00000010: b8f8 36bc 77f5 03be 580c 1abb 47c5 29be
00000020: dff1 d63c 874d b13b 07a3 55bd 05ea 45be
00000030: a640 4c3d 7f50 dfbd 227b 363e 3448 d8bd

conv2.weight f4 [32, 16, 3, 3]
-0.40324828 -0.28232414 -0.417957 -0.25595474 -0.28565934 -0.46584418 -0.35835102 -0.30354175
-0.4628631 0.10374546 -0.014184503 -0.026303522 -0.042020954 0.06820661 -0.0077962386 -0.05565766
-0.012877428 -0.00069755997 0.003526567 0.07735605 0.05601817 0.123623565 0.14718 0.11422193
0.08372283 0.14819817 0.08554308 -0.30439597 -0.24715537 -0.36364803 -0.26877478 -0.3330299
-0.27282703 -0.41438136 -0.28941795 -0.42178532 -0.21143475 -0.29427934 -0.25578177 -0.27051196
-0.22305743 -0.24680343 -0.26962805 -0.31997898 -0.17512292 -0.21071121 -0.12115465 -0.16606198
-0.15250953 -0.1729356 -0.14325058 -0.09455814 -0.0633238 -0.20862463 -0.22173622 -0.23663601
-0.25604004 -0.19228444 -0.17958069 -0.18762192 -0.19291581 -0.31199288 -0.2979506 -0.2921629
-0.2847419 -0.19600973 -0.23990704 -0.34560913 -0.30496073 -0.22283034 -0.22323392 -0.3469282
-0.24795131 -0.2679675 -0.33970574 -0.2048259 -0.29523253 -0.29917964 -0.29786515 -0.329976
-0.2107874 -0.45402673 -0.39282128 -0.42510334 -0.48036888 -0.5317618 -0.41702032 -0.51727146
-0.42093766 -0.3861176 -0.41604626 -0.3869683 -0.44466412 -0.22791392 -0.16155778 -0.3234714
-0.14801887 -0.22025476 -0.299175 -0.039952513 -0.11297016 -0.06297245 -0.051714096 -0.035238944
-0.078361705 -0.14410622 -0.07294093 -0.16302532 0.078921564 0.13987698 0.022605004 0.17565882
0.08290429 0.14630125 0.10361249 0.18034792 0.09835562 0.06338405 0.080322176 0.15856592
0.11785707 0.21377642 0.12762783 0.19785318 0.10787687 0.19308391 -0.24064368 -0.377447
-0.24112204 -0.19502112 -0.3487021 -0.20257568 -0.25406045 -0.3899004 -0.33056515 0.24306397
0.19336201 0.19181766 0.26578957 0.18059438 0.20914051 0.20774838 0.26453295 0.138098
-0.04406905 -0.09590172 -0.11511852 -0.0838854 -0.0850106 -0.043215934 -0.002758725 -0.036252595
-0.087285146 0.07361688 0.06697146 0.2416121 -0.022325465 -0.035928987 0.18493791 -0.04330395
-0.09547644 0.28990573 -0.089175485 -0.09291532 -0.023209594 -0.04966764 -0.07679166 -0.012961904
0.046777442 0.021678945 -0.060090158 -0.13419107 -0.03569492 -0.18580842 -0.019234482 -0.15760289
-0.064030126 -0.15056704 -0.1443579 -0.055717982 -0.08736816 -0.17052656 -0.06530055 -0.06450881
-0.10938141 -0.14147648 -0.13984837 -0.15399104 -0.141856 -0.07430791 -0.16290222 0.010972363
-0.07894489 -0.09275221 -0.04268124 0.034238186 -0.14924076 0.0022629309 -0.110170975 0.03640681
-0.0841296 -0.10936782 -0.04553287 0.021421378 -0.13910852 0.04668633 0.018355403 -0.20225006
-0.22087608 -0.09120141 -0.066287525 -0.20142365 -0.037556376 -0.19017081 -0.14417295 -0.07158749
-0.11705315 -0.091555424 -0.2207412 -0.13683428 -0.12963495 -0.20332049 -0.14918745 -0.12476012
-0.119732626 -0.086679585 -0.09352306 -0.06809863 -0.14163654 -0.00058508443 -0.12024879 -0.11378086
-0.08901628 -0.15162516 0.046039116 -0.08940111 0.02949059 -0.033713482 0.015414511 0.039248023
0.015708808 -0.029132295 -0.049010184 0.041844532 -0.075586736 0.033007864 0.052246246 -0.09702385
0.04967554 -0.021398231 -0.08101368 0.057522893 0.03455105 0.09487109 0.0849459 0.058703776
00000000: 8f76 cebe ca8c 90be 76fe d5be 800c 83be
00000010: f141 92be 2183 eebe c979 b7be d369 9bbe
00000020: 64fc ecbe 8078 d43d 1e66 68bc 7c7a d7bc
00000030: 2a1e 2cbd e8af 8b3d 9777 ffbb 49f9 63bd
00000040: d9fb 52bc 75dc 36ba fa1d 673b d96c 9e3d
00000050: 4f73 653d 5a2e fd3d 5bb6 163e 30ed e93d
00000060: e076 ab3d 43c1 173e 3631 af3d cad9 9bbe
00000070: 4c16 7dbe 1330 babe d99c 89be e582 aabe
00000080: fcaf 8bbe cb29 d4be 972e 94be 3ff4 d7be
00000090: 5a82 58be c8ab 96be d4f5 82be 8b80 8abe
000000a0: 2b69 64be 0aba 7cbe b00c 8abe 49d4 a3be
000000b0: 6c53 33be aec4 57be ee1f f8bd 270c 2abe
000000c0: 752b 1cbe 0816 31be 48b0 12be b3a7 c1bd
000000d0: e9af 81bd b2a1 55be d20e 63be b650 72be
000000e0: ae17 83be 36e6 44be 00e4 37be f61f 40be
000000f0: b98b 45be 88bd 9fbe fb8c 98be 6096 95be
00000100: b1c9 91be c6b6 48be 31aa 75be aef3 b0be
00000110: d023 9cbe a32d 64be 6f97 64be 93a0 b1be
00000120: f3e6 7dbe 0933 89be e9ed adbe e1bd 51be
00000130: b828 97be 132e 99be c881 98be 9df2 a8be
00000140: a7d8 57be 3176 e8be df1f c9be 25a7 d9be
00000150: e9f2 f5be 8b21 08bf b083 d5be e76b 04bf
00000160: 2485 d7be 35b1 c5be 0404 d5be b620 c6be
00000170: 04ab e3be 4462 69be 676f 25be 0b9e a5be
00000180: 4292 17be 778a 61be 772d 99be 3fa5 23bd
00000190: e65c e7bd b3f7 80bd 29d2 53bd b656 10bd
000001a0: 1a7c a0bd 9590 13be 0e62 95bd 1cf0 26be
000001b0: a1a1 a13d e93b 0f3e 212e b93c e8df 333e
000001c0: b9c9 a93d ffcf 153e c932 d43d 20ad 383e
000001d0: ac6e c93d 7fcf 813d f47f a43d 1b5f 223e
000001e0: 0c5f f13d 35e8 5a3e dfb0 023e 069a 4a3e
000001f0: 8cee dc3d cab7 453e 4c6b 76be bc40 c1be
00000200: b2e8 76be 9eb3 47be 1589 b2be 0070 4fbe
00000210: 3614 82be 06a1 c7be d63f a9be c3e5 783e
00000220: b100 463e d96b 443e 9215 883e bced 383e
00000230: ee28 563e febb 543e dd70 873e 9069 0d3e
00000240: c081 34bd 1f68 c4bd 42c3 ebbd 1ccc abbd
00000250: 0a1a aebd 3103 31bd bacb 34bb 9a7d 14bd
00000260: 8ec2 b2bd 72c4 963d 5528 893d 2a69 773e
00000270: e5e3 b6bc 462a 13bd 5d60 3d3e 7c5f 31bd
00000280: 2789 c3bd 866e 943e a3a1 b6bd 634a bebd
00000290: 0c22 bebc 4c70 4bbd f244 9dbd 2a5e 54bc
000002a0: b499 3f3d 0b98 b13c 1921 76bd 6269 09be
000002b0: d634 12bd 9044 3ebe a291 9dbc a762 21be
000002c0: 3a22 83bd 3f2e 1abe 8fd2 13be 8a38 64bd
000002d0: 14ee b2bd 849e 2ebe 4bbc 85bd 321d 84bd
000002e0: 5c03 e0bd 36df 10be 6934 0fbe d4af 1dbe
000002f0: b342 11be bf2e 98bd d7cf 26be 6dc5 333c
00000300: dcad a1bd dff4 bdbd 86d2 2ebd 573d 0c3d
00000310: 92d2 18be ae4d 143b 52a1 e1bd 4f1f 153d
00000320: 244c acbd 3cfc dfbd ad80 3abd e37b af3c
00000330: 7772 0ebe 2a3a 3f3d 125e 963c a41a 4fbe
00000340: 572d 62be cec7 babd c1c1 87bd 0042 4ebe
00000350: b7d4 19bd 23bc 42be 13a2 13be 769c 92bd
00000360: 90b9 efbd 6981 bbbd fb09 62be 491e 0cbe
00000370: 06bf 04be 3f33 50be 98c4 18be 3c82 ffbd
00000380: 6136 f5bd 1185 b1bd 0589 bfbd 4b77 8bbd
00000390: 2b09 11be 5a60 19ba ff44 f6bd f105 e9bd
000003a0: 2b4e b6bd a043 1bbe 8393 3c3d ee17 b7bd
000003b0: 4096 f13c 2617 0abd 258d 7c3c 89c2 203d
000003c0: c2af 803c daa6 eebc e7be 48bd 2c65 2b3d
000003d0: 38cd 9abd 4133 073d 2900 563d 71b4 c6bd
000003e0: 9478 4b3d 584b afbc 80ea a5bd 209d 6b3d
000003f0: 6785 0d3d c64b c23d 1ef8 ad3d 5f73 703d

conv2.bias f4 [32]
-0.14668456 -0.123629004 -0.044699967 0.04866089 0.013096856 -0.05090276 0.059325535 0.038953915
0.022506205 0.026149275 -0.0068557286 -0.024759606 -0.13697653 -0.06648866 0.031947087 -0.009138287
-0.027121022 0.14258851 0.056147654 0.04520504 0.0060348096 0.011134531 0.041620195 0.107173964
0.08991355 0.07658017 0.029178567 -0.061715715 -0.07154694 -0.041255645 -0.059184402 0.04097096
00000000: 7a34 16be 3431 fdbd 5017 37bd a450 473d
00000010: 3294 563c 6a7f 50bd 55ff 723d 248e 1f3d
00000020: ef5e b83c 0137 d63c 05a6 e0bb a8d4 cabc
00000030: 9343 0cbe 352b 88bd f3da 023d c1b8 15bc
00000040: e82c debc b902 123e 15fb 653d ec28 393d
00000050: a7bf c53b 9c6d 363c f079 2a3d 067e db3d
00000060: 9824 b83d 10d6 9c3d e407 ef3c 9ec9 7cbd
00000070: 3487 92bd aefb 28bd 586b 72bd 2ad1 273d

fc1.weight f4 [128, 32]
-0.07131065 -0.022642907 -0.08102217 -0.12779431 0.0574135 -0.1273561 -0.12632781 -0.011443738
0.11470447 0.09217943 -0.08265377 -0.096452706 -0.11120385 0.10744981 0.15492637 0.07257829
-0.16185193 -0.12062583 -0.0758154 -0.043978266 0.039214775 -0.03409849 -0.18173043 -0.08610775
-0.06625421 -0.02882708 0.11479776 -0.1319191 0.05443852 0.040789 -0.003910485 0.124450825
-0.2796507 -0.17362113 0.15184996 0.10382096 -0.026038805 0.14633293 0.03760582 -0.04853391
-0.011862409 0.1606311 -0.33109424 -0.12353356 -0.35229707 0.06914607 0.11122558 0.15722388
0.006526113 0.17831315 -0.02987303 -0.16899689 -0.01114979 -0.1301385 -0.010789294 0.22632419
-0.11546674 -0.05145883 0.0025960773 0.17464924 -0.36094582 -0.042419076 -0.23956382 -0.14096439
0.39956278 0.13747978 -0.14950797 -0.17534809 -0.09831702 -0.017271165 -0.027559686 0.14669974
0.1145082 0.16231707 0.3839703 -0.18604642 0.7110244 -0.05049851 0.07989189 0.073401846
-0.09325469 -0.040458135 0.051241785 0.05992938 0.030619 -0.12842552 0.1277347 -0.103400886
0.023015799 0.035033073 -0.06712352 0.065481976 0.10549416 -0.06196568 0.3539005 0.08626023
0.1258075 -0.08779155 0.07330336 -0.037163466 -0.039384037 -0.059031695 0.09390394 -0.060140498
0.026679145 0.13805446 0.11005212 -0.028330289 -0.14025894 -0.12915781 -0.1377527 -0.13997786
0.08700909 0.04508408 0.16026878 -0.08990519 0.07643613 -0.14205384 -0.11554807 -0.13952623
0.06582253 0.17672898 -0.06501117 -0.10217361 0.015292878 -0.054899115 -0.015319578 0.003056384
-0.18632787 0.046230298 0.28102168 -0.104503304 -0.0056890845 0.00831872 0.101299696 -0.19103812
-0.12462041 0.06881597 -0.3105363 0.12442731 -0.36705217 0.12602226 0.0905208 0.0661221
-0.14108305 0.016912686 -0.08030409 0.12582086 0.14957301 -0.18339728 0.018250596 0.05795993
0.06517444 0.12404447 0.07353514 -0.07489478 -0.054931685 0.08820523 -0.0682892 0.0068856985
-0.23672868 -0.16744794 0.06388135 0.08911784 -0.04381911 0.115601 0.14337929 -0.14846477
0.06403792 0.01359144 -0.31216446 0.038615625 -0.46829864 0.06231459 -0.07941473 0.06873569
-0.0073998305 0.14505461 -0.12929752 0.041026536 0.08389948 0.16751282 -0.101344876 0.037089866
0.0039143334 -0.08377453 0.15577587 -0.15652606 -0.25388476 0.10276871 -0.26358262 -0.06974239
-0.26061103 -0.080280386 -0.019597068 0.009491459 0.10717359 -0.042820916 0.22165765 0.14292385
0.12747666 -0.0883662 -0.18911834 0.023986468 -0.30955437 0.042937268 0.16108443 0.0048942207
0.023202207 0.16228409 0.069949 0.10542846 -0.09178117 0.16529617 0.19156964 0.07685126
-0.09207236 0.027116895 -0.04848688 0.13822806 -0.18796995 -0.1615474 -0.24266526 0.011540807
-0.17673159 0.124710456 -0.14851736 -0.13765848 -0.118740104 -0.05150541 -0.007038185 -0.09132309
-0.12902303 -0.13167536 0.11855736 0.1274275 0.014947064 -0.01094653 0.0061580804 -0.078657255
0.09792264 -0.14251553 -0.05994174 0.098029666 0.03172187 -0.13666478 -0.054101553 0.049339212
-0.09777837 0.066210315 0.14563681 0.049932152 -0.13600518 -0.044114243 -0.13491619 0.1284076
00000000: 510b 92bd 9e7d b9bc f4ee a5bd 83dc 02be
00000010: 6b2a 6b3d a369 02be 145c 01be 847e 3bbc
00000020: 2dea ea3d 92c8 bc3d 6146 a9bd ff88 c5bd
00000030: d8be e3bd a50e dc3d 05a5 1e3e eda3 943d
00000040: 83bc 25be ad0a f7bd 1b45 9bbd 8e22 34bd
00000050: ac9f 203d dcaa 0bbd 8b17 3abe 4359 b0bd
00000060: 4ab0 87bd c526 ecbc 171b eb3d cd15 07be
00000070: edfa 5e3d 5e12 273d 8723 80bb 13e0 fe3d
00000080: 602e 8fbe bdc9 31be 8e7e 1b3e 15a0 d43d
00000090: 554f d5bc 4dd8 153e 8f08 1a3d 7ecb 46bd
000000a0: 8d5a 42bc 7b7c 243e 2f85 a9be 2aff fcbd
000000b0: 4860 b4be 749c 8d3d 3dca e33d 4cff 203e
000000c0: 01d9 d53b b997 363e 49b8 f4bc 850d 2dbe
000000d0: 9cad 36bc 0743 05be 94c5 30bc 87c1 673e
000000e0: d479 ecbd 7ec6 52bd f322 2a3b 40d7 323e
000000f0: e4cd b8be a0bf 2dbd 3850 75be f858 10be
00000100: 7e93 cc3e 80c7 0c3e 9e18 19be 738e 33be
00000110: 6f5a c9bd 427c 8dbc dac4 e1bc 7538 163e
00000120: 4683 ea3d 7236 263e c197 c43e f482 3ebe
00000130: b205 363f 87d7 4ebd 5c9e a33d b553 963d
00000140: 51fc bebd 6eb7 25bd e8e2 513d 8278 753d
00000150: b2d4 fa3c fb81 03be e3cc 023e d8c3 d3bd
00000160: a18b bc3c d77e 0f3d 0e78 89bd 6a1b 863d
00000170: 520d d83d bacf 7dbd 7232 b53e 34a9 b03d
00000180: aed3 003e 0ecc b3bd 1220 963d b838 18bd
00000190: 2851 21bd 38cb 71bd b550 c03d e255 76bd
000001a0: 398e da3c 265e 0d3e 0263 e13d ec14 e8bc
000001b0: 0aa0 0fbe f241 04be 0b0f 0dbe 5b56 0fbe
000001c0: d231 b23d 16aa 383d 801d 243e 3620 b8bd
000001d0: 8c8a 9c3d 9076 11be 77a4 ecbd f7df 0ebe
000001e0: f6cd 863d 71f8 343e 9424 85bd 6640 d1bd
000001f0: fb8e 7a3c e5dd 60bd f8fe 7abc 9d4d 483b
00000200: bccc 3ebe fb5b 3d3d 13e2 8f3e d405 d6bd
00000210: 806b babb 3e4b 083c 3776 cf3d 7f9f 43be
00000220: fc38 ffbd 63ef 8c3d 9dfe 9ebe bfd3 fe3d
00000230: 43ee bbbe fb0b 013e f862 b93d 066b 873d
00000240: 1378 10be 798c 8a3c 7976 a4bd 2fd7 003e
00000250: ab29 193e 7fcc 3bbe 4682 953c 6467 6d3d
00000260: 2d7a 853d 070b fe3d 9799 963d 6f62 99bd
00000270: 0c00 61bd f2a4 b43d 35db 8bbd 6da1 e13b
00000280: 0169 72be 7977 2bbe 3ad4 823d 6a83 b63d
00000290: ab7b 33bd 38c0 ec3d 05d2 123e 2607 18be
000002a0: 5026 833d a2ae 5e3c 05d4 9fbe 6b2b 1e3d
000002b0: d7c4 efbe 953d 7f3d 31a4 a2bd 4cc5 8c3d
000002c0: 477a f2bb 3289 143e 9266 04be 710b 283d
000002d0: 7ed3 ab3d 7b88 2b3e e78d cfbd 8beb 173d
000002e0: cf43 803b fb91 abbd b683 1f3e 5e48 20be
000002f0: 2ffd 81be 6778 d23d 4df4 86be 19d5 8ebd
00000300: cf6e 85be 0b6a a4bd 088a a0bc 1082 1b3c
00000310: d47d db3d fc64 2fbd 39fa 623e a15a 123e
00000320: 3e89 023e 57f9 b4bd 3da8 41be 457f c43c
00000330: e97d 9ebe fdde 2f3d 51f3 243e b35f a03b
00000340: 8e12 be3c cd2d 263e 6c41 8f3d e0ea d73d
00000350: c4f7 bbbd 6643 293e d52a 443e 3264 9d3d
00000360: 6f90 bcbd 4024 de3c 2e9a 46bd a88b 0d3e
00000370: 327b 40be ae6c 25be 3e7d 78be a715 3d3c
00000380: 20f9 34be 3268 ff3d ef14 18be 58f6 0cbe
00000390: 032e f3bd 56f7 52bd 93a0 e6bb 9a07 bbbd
000003a0: 9d1e 04be e8d5 06be 33ce f23d 5b7c 023e
000003b0: 88e4 743c 1359 33bc b9c9 c93b 0e17 a1bd
000003c0: aa8b c83d 97ef 11be 7885 75bd c7c3 c83d
000003d0: cbee 013d daf1 0bbe 9799 5dbd ea17 4a3d
000003e0: 0740 c8bd 4699 873d d121 153e a885 4c3d
000003f0: f144 0bbe 23b1 34bd 7827 0abe 487d 033e

fc1.bias f4 [128]
-0.13896057 0.16087633 0.108330056 -0.015041451 0.071638934 0.1381312 0.0018186881 -0.07784461
-0.051425073 0.05734519 0.12714231 0.035191245 -0.11845641 -0.0035438105 -0.14409845 0.122126244
0.18020265 0.138471 0.2036661 0.030597406 0.15317889 0.13367718 0.11732704 -0.13850433
-0.1839649 -0.15976614 0.09850122 -0.25622046 -0.2075807 0.09531865 0.049968727 0.1515439
-0.118781984 -0.04216211 0.11933668 0.18188022 -0.12983672 -0.11218327 0.19416353 0.0905846
-0.081228524 0.16327932 0.21376128 -0.14744754 0.16632146 0.03518769 0.10843393 -0.09399983
-0.06665793 0.029362606 0.15592316 -0.0067951344 -0.107784264 -0.12503164 -0.0049980883 0.035430573
0.14523098 0.05836041 0.050999474 0.099874906 -0.2115898 0.056474254 -0.052609228 0.18698613
0.16077858 -0.098261684 0.1215852 0.024451297 0.12435117 0.16737314 0.21826558 0.016424004
0.05915467 -0.18755433 0.020451548 0.14787522 -0.09147857 0.14042473 0.19139178 0.056670133
-0.080528155 -0.17449024 -0.09396004 -0.07302388 0.13340735 0.016504038 0.10428157 -0.1489689
-0.1858798 0.115485676 -0.24975958 -0.06388825 0.12615089 -0.008829258 0.13695736 -0.16439557
0.07432661 -0.102200195 0.14251594 0.024285624 -0.109417506 -0.05825899 -0.037601452 0.13323495
0.1854055 -0.015955882 0.10633323 0.029105252 0.04649218 0.11660146 0.15232266 -0.19082126
0.0594984 0.14356121 -0.046067547 0.056498997 -0.05996699 0.058436412 0.021825623 0.028373312
0.05706484 0.060839433 -0.10159658 -0.2797041 -0.03352046 -0.0926016 -0.12790868 -0.07096403
00000000: ae4b 0ebe c4bc 243e 26dc dd3d 6b70 76bc
00000010: 6fb7 923d 4472 0d3e 0c61 ee3a ff6c 9fbd
00000020: 19a3 52bd cae2 6a3d 9831 023e b224 103d
00000030: 4699 f2bd 463f 68bb 8b8e 13be 531d fa3d
00000040: 0b87 383e 58cb 0d3e d98d 503e 69a7 fa3c
00000050: edda 1c3e ace2 083e 2949 f03d 14d4 0dbe
00000060: 4b61 3cbe bc99 23be 02bb c93d 542f 83be
00000070: 0990 54be 6d36 c33d 02ac 4c3d 532e 1b3e
00000080: f843 f3bd 2db2 2cbd ca66 f43d cf3e 3a3e
00000090: ebf3 04be 58c0 e5bd ced2 463e 6b84 b93d
000000a0: 245b a6bd b232 273e 3de4 5a3e 7dfc 16be
000000b0: 2c50 2a3e f820 103d 9c12 de3d fc82 c0bd
000000c0: f483 88bd d989 f03c 52aa 1f3e b8a9 debb
000000d0: ffbd dcbd 4b08 00be 01c7 a3bb a61f 113d
000000e0: 6eb7 143e 530b 6f3d d3e4 503d 378b cc3d
000000f0: ffaa 58be 8c51 673d c67c 57bd 4b79 3f3e
00000100: 24a3 243e 6c3d c9bd a901 f93d 164e c83c
00000110: d4ab fe3d dd63 2b3e 0381 5f3e a28b 863c
00000120: 2b4c 723d 3e0e 40be 018a a73c 9a6c 173e
00000130: 1e59 bbbd 80cb 0f3e 35fc 433e f11e 683d
00000140: f2eb a4bd 92ad 32be 1f6e c0bd 8b8d 95bd
00000150: f09b 083e 7a33 873c 9391 d53d 4e8b 18be
00000160: 4657 3ebe c183 ec3d fac0 7fbe d8d7 82bd
00000170: b32d 013e 98a8 10bc 8d3e 0c3e 5057 28be
00000180: 8d38 983d 564e d1bd b3ef 113e a5f2 c63c
00000190: 4916 e0bd fba0 6ebd fb03 1abd be6e 083e
000001a0: f0da 3d3e e9b5 82bc 3dc5 d93d 236e ee3c
000001b0: 966e 3e3d bfcc ee3d 79fa 1b3e a666 43be
000001c0: 98b4 733d b601 133e 53b1 3cbd 7e6b 673d
000001d0: f29f 75bd 055b 6f3d a6cb b23c 266f e83c
000001e0: d2bc 693d c532 793d de11 d0bd 6035 8fbe
000001f0: c04c 09bd e8a5 bdbd 7efa 02be 9755 91bd

fc2.weight f4 [3, 128]
0.013115595 0.059263013 -0.07863026 0.060652845 -0.034830786 0.12254621 0.09248712 0.020021755
-0.07069378 -0.0036433453 -0.06411738 0.11114821 -0.11531976 0.036971103 -0.5519199 0.018314853
0.07775153 0.075789295 0.11642919 -0.0072791134 -0.016806584 -0.05589526 0.0011359842 -0.02421151
0.008342704 -0.23208085 0.064690836 -0.26726648 0.049674362 -0.04339821 0.097692765 0.086709045
-0.022052512 0.12996553 0.0661714 0.018354068 -0.019169286 0.021381907 0.09371692 0.16072117
0.012394973 -0.07671552 0.03136927 0.052217968 0.17152184 0.18800595 0.002471881 6.234664e-05
-0.05641734 -0.015283461 -0.11285757 0.18661301 -0.023926504 0.11454979 0.25323093 0.002966729
-0.050899126 -0.035570145 0.0631696 -0.051150415 0.21538681 0.3781801 -0.014769087 0.10747056
0.09885326 0.035991505 -0.006659065 -0.009096752 0.05124467 0.066073574 0.06971778 0.075104706
0.355837 -0.044431116 -0.064153165 0.05941744 0.03057846 -0.024608599 0.082122006 -0.15306902
-0.042986136 0.006832246 -0.0034240824 0.125516 0.071889736 -0.1300165 -0.010531271 -0.026739448
0.01806527 0.04377533 -0.50928384 -0.09709926 0.118104585 0.003828392 -0.002862533 -0.06386847
-0.023044595 -0.027886402 0.14933713 -0.06560988 0.0083498005 0.01679843 0.07178612 -0.015872579
0.05393212 -0.09138198 0.072354205 -0.042565953 -0.01323829 0.07548153 0.05888678 0.07839469
-0.037341 0.055922747 0.083632424 -0.032381643 -0.07087452 0.042882454 -0.5230082 0.03594868
0.06351221 0.04000121 0.068023056 -0.261092 0.07322543 0.0043211076 0.05265277 -0.030818932
0.0546756 -0.07639996 0.15445134 0.0011789949 -0.12400507 -0.16550693 -0.038648605 0.014103828
-0.20190021 -0.0921823 0.08867716 -0.13020636 0.09902383 0.0030962427 0.46053737 -0.037082493
0.061401173 -0.038244206 -0.015113788 -0.10516673 -0.04085544 -0.0474268 -0.056911677 0.052951813
-0.048838757 0.31811774 -0.013281863 0.3536247 0.0056283018 0.16799732 -0.010711071 -0.10278587
-0.053862423 -0.17609873 -0.03714614 -0.09119074 0.035259593 0.009533069 -0.04047369 -0.12592176
0.102137536 0.18143591 -0.116884746 0.066281885 -0.07643394 -0.13019909 0.08294304 0.050400406
-0.106730916 -0.12288477 0.16401552 -0.07395036 0.026972791 -0.009210245 -0.56310016 0.009516844
0.05967155 0.040796325 -0.12430596 -0.0043715467 -0.26903164 -0.4106091 -0.18828085 -0.059906695
-0.014188386 0.11000163 -0.03478529 0.033919234 0.077309065 0.028781725 -0.04559507 -0.1309166
-0.3892997 -0.0755336 0.005838447 0.08917449 -0.18197039 0.07338445 0.03471384 0.13680989
-0.068025164 0.044533223 -0.09795489 -0.17985606 0.023642307 0.15094323 0.05661329 -0.02328238
-0.045358285 -0.12826973 0.5409536 0.08763033 -0.14269225 -0.10786689 -0.07650715 -0.07873228
-0.13737188 0.054712687 0.0084227715 0.019851472 -0.0110487435 0.08617353 -0.030208498 0.06631441
-0.12254861 0.10259183 -0.024547068 0.11113854 -0.08365361 -0.23497592 0.033179563 0.026648365
-0.02125044 -0.0959654 -0.009063898 0.065113105 0.06045379 -0.15225376 0.66399276 -0.019394472
0.06780168 -0.15820037 0.010450657 0.31379235 0.057457354 -0.12183709 -0.013614566 -0.04817238
00000000: cbe2 563c c6bd 723d e708 a1bd 1e6f 783d
00000010: baaa 0ebd 82f9 fa3d e369 bd3d aa04 a43c
00000020: e7c7 90bd 31c5 6ebb f94f 83bd aca1 e33d
00000030: c42c ecbd 036f 173d 9f4a 0dbf 0809 963c
00000040: 323c 9f3d 6b37 9b3d 6d72 ee3d a185 eebb
00000050: f6ad 89bc 6ef2 64bd 4ee5 943a 3757 c6bc
00000060: d6af 083c 9aa6 6dbe a17c 843d 27d7 88be
00000070: 5877 4b3d 52c2 31bd 2513 c83d 8394 b13d
00000080: 78a7 b4bc af15 053e df84 873d 455b 963c
00000090: e808 9dbc 1c29 af3c a8ee bf3d 1794 243e
000000a0: 4914 4b3c 071d 9dbd 107d 003d 82e2 553d
000000b0: 6ca3 2f3e a284 403e 48ff 213b 19c0 8238
000000c0: de15 67bd 7b67 7abc df21 e7bd 7b17 3f3e
000000d0: 8401 c4bc 1599 ea3d 7ca7 813e 746d 423b
000000e0: 9a7b 50bd 00b2 11bd 105f 813d 1983 51bd
000000f0: 5c8e 5c3e d2a0 c13e 0afa 71bc 8619 dc3d
00000100: 9473 ca3d d46b 133d 4934 dabb 8b0a 15bc
00000110: eee5 513d 9551 873d 32c8 8e3d 7fd0 993d
00000120: 4430 b63e 67fd 35bd bc62 83bd b45f 733d
00000130: ae7f fa3c f997 c9bc 952f a83d 20be 1cbe
00000140: 3b12 30bd 09e1 df3b 9266 60bb 4487 003e
00000150: ed3a 933d 0c23 05be 5a8b 2cbc b00c dbbc
00000160: 9efd 933c c34d 333d 6d60 02bf fadb c6bd
00000170: d1e0 f13d c2e5 7a3b 5699 3bbb 79cd 82bd
00000180: 05c8 bcbc 0672 e4bc d5eb 183e 795e 86bd
00000190: 9acd 083c dc9c 893c 9a04 933d 3607 82bc
000001a0: ede7 5c3d 7a26 bbbd 712e 943d a359 2ebd
000001b0: 6ae5 58bc 0f96 9a3d 4433 713d 658d a03d
000001c0: e0f2 18bd 400f 653d 7a47 ab3d 9da2 04bd
000001d0: a926 91bd 83a5 2f3d dee3 05bf ec3e 133d
000001e0: b112 823d 4fd8 233d ac4f 8b3d daad 85be
000001f0: 37f7 953d 1498 8d3b 6eaa 573d fc77 fcbc
00000200: 86f3 5f3d 9577 9cbd 7e28 1e3e 8188 9a3a
00000210: 5ff6 fdbd a67a 29be 004e 1ebd be13 673c
00000220: eebe 4ebe 13ca bcbd 5f9c b53d d154 05be
00000230: 01cd ca3d 55ea 4a3b 8ecb eb3e d0e3 17bd
00000240: cc7f 7b3d f5a5 1cbd d29f 77bc a861 d7bd
00000250: 0958 27bd 9b42 42bd 381c 69bd 00e4 583d
00000260: 260b 48bd 54e0 a23e 2c9c 59bc 4c0e b53e
00000270: 9e6d b83b 7d07 2c3e 7d7d 2fbc 6681 d2bd
00000280: d89e 5cbd 3a53 34be 8d26 18bd 36c2 babd
00000290: 5d6c 103d 9730 1c3c bdc7 25bd a2f1 00be
000002a0: 7c2d d13d 56ca 393e 4561 efbd ccbe 873d
000002b0: 6689 9cbd e952 05be 0ade a93d a870 4e3d
000002c0: bd95 dabd 03ab fbbd aff3 273e 4973 97bd
000002d0: 0bf6 dc3c 91e6 16bc 5527 10bf 89ec 1b3c
000002e0: 286a 743d 0c1a 273d 2094 febd 313f 8fbb
000002f0: 84be 89be 5b3b d2be b2cc 40be b960 75bd
00000300: 6776 68bc 8948 e13d 057b 0ebd e5ee 0a3d
00000310: 3754 9e3d a7c7 eb3c e5c1 3abd 000f 06be
00000320: 4a52 c7be 5cb1 9abd 7150 bf3b 1da1 b63d
00000330: 7256 3abe 964a 963d 1930 0e3d e417 0c3e
00000340: c750 8bbd 7868 363d 939c c8bd 302c 38be
00000350: 83ad c13c dd90 1a3e 56e3 673d b1ba bebc
00000360: 9cc9 39bd 2459 03be ef7b 0a3f 8877 b33d
00000370: eb1d 12be 51e9 dcbd c8af 9cbd 643e a1bd
00000380: 37ab 0cbe 691a 603d aaff 093c 8e9f a23c
00000390: ca05 35bc bf7b b03d d077 f7bc d9cf 873d
000003a0: c4fa fabd aa1b d23d ef16 c9bc 9a9c e33d
000003b0: 9552 abbd 879d 70be 4be7 073d ac4d da3c
000003c0: 6715 aebc 8289 c4bd be80 14bc 055a 853d
000003d0: 659e 773d 69e8 1bbe 6efb 293f 28e1 9ebc
000003e0: 9bdb 8a3d 47ff 21be 3c39 2b3c 64a9 a03e
000003f0: 6758 6b3d b985 f9bd a10f 5fbc 6750 45bd

fc2.bias f4 [3]
0.08151601 -0.019634513 -0.0623516
00000000: def1 a63d 8fd8 a0bc 6464 7fbd
