Autonomous-Vehicle-Perception-System/kitti_cnn.pth (torch, 42072 bytes, 8 tensors)

conv1.weight f4 [16, 3, 3, 3]
00000000: 3ded ea3c 35a0 8a3d a280 a63e 1fff 823e
00000010: 9322 8e3e bf38 923e 10f9 573e 3e28 0c3c
00000020: d063 543e 4992 1abe 0930 013e 0f08 9e3c
00000030: 6d81 4cbd fdcc f53d 9ee7 27be c80c 373e
00000040: 0096 f03a f47c ffbd 610d e3bd 1600 4f3e
00000050: 9336 c53d eec2 9f3c 38e2 90bd b5e0 fb3d
00000060: 89a3 8b3d 2c99 3a3e 215f cb3c 2587 d83c
00000070: c8b7 d1bd 886a c83d 8ae6 4e3e e1d7 763e
00000080: ca07 f2bd 49d7 c0bc 02a9 333d b699 183e
00000090: 2751 bd3b d9cf dabc f6a6 b63d b80f debd
000000a0: e9fd 1e3e d0ed 043d 0661 033e 54d8 a73c
000000b0: 510d 3b3e 4207 16be 3706 fcbd d047 21bd
000000c0: c08d ef3c 9ac7 03be cd7a 7fbe dba1 263d
000000d0: bdef 3bbd e65b 0abe 487d 3d3e a5d0 5d3e
000000e0: 46ac 77bb e812 793d 1a12 fabc 26da 2d3e
000000f0: 6fab 00bd e4e9 e93d 96b6 9ebc 17d1 8fbe
00000100: d16f 79be 69bf 943d 2aa5 713c 39d1 32be
00000110: 76bb 8ebd 4c1c 80be d894 f2bd c9e7 81be
00000120: e15a 573e 5c40 433e 9a40 debd 9c0f c9bd
00000130: c1a8 ad3d 568f 803e 285e f83c c23f fe3d
00000140: d77b cf3d 9042 4c3e 025f 633e 433f 9abd
00000150: 9a06 01be 926b f83d 3145 a2bd 961c 743e
00000160: 1a53 073c 3b52 89bd c3d3 aabd 583f 393d
00000170: 9704 763d 1e64 1c3e bbd1 553e 23bf ad3d
00000180: c202 2a3e 81ef 0b3e ecec 063e ae3a 9c3d
00000190: e36f abbd fb40 083d 50c1 35be bc0c e6bd
000001a0: 8860 ecbc 4bbf 96b8 55aa 2abe fcbc 353d
000001b0: e809 d23d 5cb1 33bd b2b2 38bd 71d1 313c
000001c0: f38d b3bd 0621 15be c72b 8e3d e888 ffbd
000001d0: d87f 2bbd 1c4e e53d 045a 0ebe cf7d 15bc
000001e0: 39e1 17be a6ec 93bd 18ff 02be 3bb1 17be
000001f0: 236a 05be 2485 863d 9b58 2c3e 995a 9a3d
00000200: 4d79 b2bd 3cd6 acbd 0b94 f43d 7852 c7bd
00000210: 4867 80bd e1a9 9d3d effc 0c3d fe52 f33d
00000220: 2cea 8fbd d9cf a8bd 4547 55be b41b 22be
00000230: 6ae4 0fbe 9cde cc3c c216 0f3e d5e2 223d
00000240: c50a 843e 9397 95bd f4a4 cbbb 79bf 94bd
00000250: 0ff1 9a3e 8df0 f73d 8b6c 303e 9fa5 e93d
00000260: c54c bf3e 5752 acbd f65a b43c 503b 9fbe
00000270: 1735 3ebe 6c99 53be 8610 76bd 4df9 d23d
00000280: 71b1 29bd f8a0 2f3d 9996 01be 555b 5e3d
00000290: cbca d73e c6c0 6ebd 932d 82bd 10ea cd3e
000002a0: 96ea b3bd 0b7c f1bc f044 033e 1ec0 3e3b
000002b0: cd66 70be 6575 693d c7b0 16be 1b25 02be
000002c0: 3c26 603e 5106 61bc c9d7 54be a81b 213d
000002d0: ecf4 abbd 48bb 51be ae1f c73d f3e6 47be
000002e0: 7232 87bd 9911 9d3e b483 6abd e033 30be
000002f0: abca 933e 06b7 83be 1251 b1be 344a 50be
00000300: 5f21 663b b10a 64be 42d8 56be c5d5 47be
00000310: 764e 5dbd 7415 91be a379 8fbc 9600 413e
00000320: def7 733e 1a1e a13e 2011 323e 0762 903e
00000330: f479 45bd e4da 143e 2f98 333d 7690 3b3e
00000340: 1435 583e 242a 7bbd 3611 b1bd 149a 163e
00000350: cae0 08be 4deb 2c3e d267 9c3c 3ddb 13be
00000360: 8262 f73d 2e36 ef3c 1220 50bc 578a e03c
00000370: e924 16be 654b 313e 54ef a03d eb25 7e3d
00000380: c8c5 963c 7633 02be ba6a 01bd 8151 f83d
00000390: 35f3 203e dc5e 443e 13ce b4bd 799c b73d
000003a0: 856f 093e 9473 e6bd 0742 cbbd 92c5 39bd
000003b0: cdbe d73d d666 c13c 48e5 43be fb2f 2abe
000003c0: 46c4 d1bd 59ec cc3d 5e6f a0bd 45a7 1e3e
000003d0: b7ad 7dbd 3527 4a3e 21f0 16bd e16e a93b
000003e0: f112 de3d 4c09 393e 33c5 28bd d1cc cf3c
000003f0: 8550 f5bd b8cd b9bc 5a64 3e3e 47fc 863d
0.028677577 0.06768838 0.32520014 0.25585267 0.27760753 0.2855892 0.21091104 0.008554516
0.207412 -0.15094866 0.1261598 0.019290952 -0.049928118 0.12001989 -0.16396949 0.1787597
0.001835525 -0.12475005 -0.11086536 0.20214877 0.0962955 0.01950213 -0.07074398 0.12298719
0.06818301 0.18222493 0.024825634 0.02643163 -0.102401316 0.09785944 0.20205131 0.24105789
-0.11817892 -0.023540156 0.04386235 0.14902386 0.0057774964 -0.026710438 0.08918564 -0.10842842
0.15526547 0.03245336 0.1282998 0.020488895 0.18266799 -0.14651206 -0.12305873 -0.039375126
0.029242396 -0.1286911 -0.24949189 0.0406817 -0.04588293 -0.13511619 0.18504822 0.21661623
-0.0037791892 0.060809046 -0.03052621 0.16977748 -0.03141349 0.11421564 -0.019374173 -0.2808921
-0.24359061 0.07263071 0.014748851 -0.17462625 -0.06969349 -0.2502159 -0.11844796 -0.2537215
0.21030761 0.1906752 -0.108521655 -0.098174304 0.08479453 0.25109357 0.030318335 0.124145046
0.101310425 0.19947267 0.22204211 -0.075315975 -0.12600175 0.121298924 -0.079233535 0.2383903
0.008259559 -0.06705137 -0.083411716 0.045226425 0.06006297 0.15272567 0.20880787 0.08483722
0.16602615 0.13665582 0.13176316 0.0762838 -0.0837095 0.033265095 -0.17749524 -0.11232898
-0.028854623 -7.1881885e-05 -0.16666539 0.044369683 0.10255796 -0.043870315 -0.045092292 0.010853157
-0.08767309 -0.14563379 0.069419436 -0.12477285 -0.04186997 0.11196539 -0.13901526 -0.009124233
-0.1483201 -0.072228715 -0.12792623 -0.14813702 -0.13028769 0.06568363 0.16830675 0.075368114
-0.087145425 -0.084392995 0.119422995 -0.097325265 -0.06269699 0.076984175 0.034420904 0.11881064
-0.070270866 -0.08242769 -0.20827968 -0.1583088 -0.14051977 0.025008492 0.13973525 0.039767105
0.25789467 -0.07304301 -0.0062147323 -0.07263083 0.30262038 0.12106428 0.17228906 0.11408543
0.37363258 -0.084141426 0.02201603 -0.3109994 -0.1857494 -0.20663995 -0.06007435 0.103014566
-0.041428987 0.04287812 -0.12655105 0.05428632 0.42146906 -0.05828931 -0.06356349 0.40217638
-0.08784978 -0.029478094 0.12819266 0.002910621 -0.23476715 0.05699672 -0.14715873 -0.12709467
0.21889585 -0.013734416 -0.2078544 0.039333016 -0.083963245 -0.20481598 0.09722839 -0.19521694
-0.066014186 0.30677488 -0.05725451 -0.17207289 0.2886556 -0.25725573 -0.34632164 -0.20340806
0.0035115106 -0.22269703 -0.20980933 -0.1951514 -0.054029904 -0.2833668 -0.017514056 0.1884788
0.23825023 0.31468278 0.17389345 0.2819979 -0.048212007 0.14536625 0.043846305 0.18316826
0.21113998 -0.061319485 -0.08645861 0.14707214 -0.13367 0.16886635 0.019092474 -0.14439102
0.12079336 0.02920064 -0.012702959 0.027409716 -0.14662518 0.17313917 0.07858148 0.06204788
0.018404856 -0.12714943 -0.031595923 0.12124921 0.15717776 0.19176811 -0.08828368 0.08965392
0.13421448 -0.112525135 -0.09924703 -0.045354433 0.10534439 0.023608606 -0.19130433 -0.16619866
-0.10242514 0.10006017 -0.078337416 0.15493496 -0.061933246 0.19741519 -0.0368501 0.0051706885
0.108434565 0.18069953 -0.04120369 0.025366219 -0.119782485 -0.022681102 0.18592969 0.06591087

conv1.bias f4 [16]
00000000: 2404 b43d a262 9a3e 33f2 6b3e be50 08be
00000010: 6f74 a73d 5434 7a3e 9715 c6bd 76a2 62be
00000020: 6c5c af3e ff16 70be 4198 cbbd 481c 3c3d
00000030: c159 013e 1b17 8cbc 8688 4e3e 1b06 86bd
0.08789852 0.30153376 0.2304161 -0.1331205 0.08176505 0.24434024 -0.09672087 -0.22132286
0.342502 -0.23446272 -0.099411495 0.04592541 0.12631895 -0.017100861 0.20169267 -0.06544133

conv2.weight f4 [32, 16, 3, 3]
00000000: 046a b7bc fa9f 7abd 36b1 6fbd b6e5 873d
00000010: 4427 933c e0e6 a6bd b712 e5bb 8152 60bd
00000020: a99b 8f3d 1a10 ae3b 6460 c13d 667b 973d
00000030: 6e45 193c 3437 a9bc 4cb8 323d cece d93d
00000040: 99e4 9b3d 9d46 1ebc 86b8 b73d 641d 023e
00000050: 9aa9 c23d 37a4 123d 4804 303d 04f1 0b3d
00000060: e9d0 b33d 632b 8f3d 5b83 2c3d 405f 8f3d
00000070: ae39 4bbd bfcc 9bbd 9feb 70bd 1da5 1bbd
00000080: 803b 753d 2f33 cc3c 24b5 3b3d d027 683d
00000090: f7cb 8a3b 3b11 6cbd 3d3b ccbd ab4f b6bd
000000a0: 78a6 fbbb 4ee0 47bd d473 183d ca03 063d
000000b0: f2a0 d7bc 3090 d53d 1579 ab3d 6cad 403d
000000c0: 117e adbc f3d6 8b3d 05f7 d03d 264b fd3d
000000d0: ea89 23bc 8790 773b fbd2 0dbe 1b87 0abe
000000e0: 30e8 73bd e734 4ebd f59d 8abd b169 0bbd
000000f0: a546 6cbd daab 0dbe b41c 03be 1d3f 223c
00000100: ba44 303c 091b 1b3c a2ec 2a3c 8c40 f03b
00000110: 5fa7 843d b231 1f3d 0666 053d a28a 933d
00000120: abb7 d53d 06a0 a73c 14a9 233d c870 4f3d
00000130: 2d26 2a3b 6658 a53d eb8a 573d a5bd b13d
00000140: 871e c43d de33 093d a8a6 413c 3d4e 80bd
00000150: 4728 593c 0298 54bd 26f4 04bd 5273 55bc
00000160: a2ce 9dbd 6c39 113b 3c49 a13d c4cb 813b
00000170: 1aa0 45bd 427b ccba 4160 a9bc b64e 923d
00000180: 2fb4 553d aa44 503d fe03 67bd a70b 4c3d
00000190: 6e3c 8b3d 3500 b23d 05fd e93c b2d2 fd3d
000001a0: b370 a63d 00af a63b b668 4c3d a267 c8bc
000001b0: 8a59 3d3c 7a50 2abd 7ff0 14bc 8f54 e03c
000001c0: 8363 71bb 4a52 58bd 744c 5cbd 2329 51bd
000001d0: 9fe3 12ba da81 4abd a929 06bd 135f 4e3d
000001e0: 74e0 eabc bcfa b83c 8474 70bd 19de 203b
000001f0: e750 69bd f494 d5bd 7d0c 013e 03b1 da3b
00000200: 22e5 9f3d 14f9 ee3d 31a4 a13d 28fc 263c
00000210: 2d56 f43d fb30 993d f82d d43d 35f8 20bd
00000220: 25c1 d2bd d722 70ba 7671 7ebd 5f33 8cbd
00000230: 64a0 43bd 8f71 cabd 9c4d ff3c b116 e0bb
00000240: b17b 1abe a26a 07be b9f2 963c 4ba9 59bd
00000250: f4ff c5bc 4ec6 4c3d c193 1a3d bca1 2e3d
00000260: 81a2 cc3c a8c8 93bd 12ea 93bd d338 73bc
00000270: 6311 cdbd 83fb 7cbd c262 863d 9e86 4c3d
00000280: df10 e8bb 6c60 5fbd ab58 45be d47a 9fbd
00000290: 57bb fd3b 05bc abbc 2a6a 02be 5f76 1cbe
000002a0: 9b54 f4bd f642 67be 1ac9 03be 6dea d8bd
000002b0: cc28 15be 4fad 1cbc 44c4 b2bd b78e 00be
000002c0: eaa9 f1ba 4bf7 aebd 9413 a63d 6878 2fbc
000002d0: 3cfb 483c 9118 343d dca3 583c 0c12 c7bd
000002e0: 0316 0bbe 776f 0abe 52be 3ebe a058 b5bd
000002f0: 983c bebd f5b9 afbc e0a5 b33d dd8c ad3d
00000300: d0d6 cd3d cfdf 8b3d 8059 81bc 232e 4b3d
00000310: dc4c b73c c4b1 c9bd 36b5 be39 4fc9 de3d
00000320: 2e5b 0f3e b3c1 ec39 2909 e13d ab5a 623d
00000330: ae04 583d d405 cebd 024b fdbd edca aabd
00000340: b3c8 2cbe 51b5 e1bd 22fe c3bd 1f9f ab3b
00000350: 8f28 f0bb a4da 323e 8787 053e 2060 253e
00000360: 11d9 0cbd 5cae f5bd 3f05 1b3d e5bf a8bd
00000370: e4f3 273d ae98 863d 3928 d7ba cd8b 893d
00000380: e3b1 9dbd 5c4d f1bd 3e75 62bd 4f32 0a3d
00000390: 34fe 37bd c1be 3d3d 4c82 a13d 5376 e23d
000003a0: a1ca 52bd 3c55 113d e4d3 3bbe a3d6 2dbd
000003b0: c0a8 83bd 8660 b8bd 6c02 173b e4cb 90bd
000003c0: efc2 413d 0210 f13c a3ce fcbc d356 96bc
000003d0: 7307 05bd b98c 51bc 6919 91bd a09c 7dbc
000003e0: 5f67 edbb 6961 9c3d a46c 87bc dafc 243d
000003f0: c599 acbd 0812 33bd 01b3 46bd e606 143a
-0.02238942 -0.06118772 -0.05851861 0.06635611 0.01796306 -0.08149505 -0.0069907564 -0.05476618
0.07012112 0.005311978 0.09442213 0.07396583 0.009354932 -0.020656206 0.04363279 0.10635148
0.07611961 -0.00966039 0.08970742 0.12706524 0.09505005 0.03580114 0.042972833 0.034165397
0.08780081 0.06990697 0.042117458 0.07000589 -0.049615555 -0.076074116 -0.058818456 -0.03799926
0.059871197 0.02492675 0.045827046 0.056678593 0.0042357403 -0.05763362 -0.09972236 -0.08901914
-0.0076797567 -0.048797898 0.037219837 0.032718457 -0.026321862 0.10427892 0.08372704 0.047040388
-0.021178277 0.06828108 0.10203365 0.12367849 -0.009981612 0.0037775354 -0.13850014 -0.13528101
-0.059547603 -0.05034342 -0.06768409 -0.034036342 -0.05768456 -0.13835087 -0.12803918 0.009902743
0.010758573 0.009466895 0.010432394 0.0073319133 0.06477236 0.038865753 0.032568 0.072041765
0.104354225 0.020462047 0.039956167 0.050644666 0.0025962696 0.08073501 0.052622717 0.0867875
0.09576135 0.03349673 0.011819519 -0.06264923 0.013254232 -0.05190278 -0.0324594 -0.013027983
-0.07705428 0.002215947 0.078752965 0.0039610583 -0.048248388 -0.0015600699 -0.02067578 0.07143919
0.05217379 0.050846733 -0.05640029 0.0498158 0.067986354 0.08691446 0.028563032 0.123937026
0.081269644 0.0050867796 0.049904548 -0.024463478 0.011556992 -0.041580655 -0.009090542 0.02738407
-0.0036832995 -0.052812852 -0.05378385 -0.05106462 -0.0005603376 -0.049440242 -0.032754574 0.05038364
-0.02867148 0.022580497 -0.058704868 0.0024546443 -0.05696192 -0.10428801 0.1260242 0.0066739335
0.078073755 0.11668602 0.07892645 0.010191955 0.11930499 0.074800454 0.1036033 -0.03929921
-0.10290746 -0.0009160465 -0.062119924 -0.06845736 -0.047760382 -0.09884941 0.031164937 -0.0068386425
-0.15086247 -0.13224271 0.018426286 -0.053139966 -0.0241699 0.049993806 0.037738565 0.04263471
0.024979832 -0.072160065 -0.0722238 -0.014845091 -0.10013082 -0.061763298 0.06561805 0.04993307
-0.0070820893 -0.054535314 -0.19272105 -0.077870995 0.00774328 -0.020963678 -0.12735811 -0.1527953
-0.119302 -0.22584137 -0.12869683 -0.10591588 -0.14566344 -0.009562804 -0.08728841 -0.12554441
-0.0018437479 -0.08543261 0.08109203 -0.010709859 0.01226693 0.04396874 0.013222661 -0.09720239
-0.13582616 -0.13519083 -0.18627289 -0.088547945 -0.09288901 -0.021450976 0.087718725 0.08474133
0.10050738 0.068297975 -0.015789747 0.049604546 0.022375517 -0.09848359 0.00036374637 0.1087824
0.13999626 0.00045157745 0.10988075 0.05526225 0.052738838 -0.100597054 -0.12367822 -0.08339486
-0.16873436 -0.110209115 -0.09569956 0.0052374746 -0.0073290537 0.17466217 0.13039981 0.1614995
-0.0343867 -0.11996147 0.0378468 -0.08239726 0.041004077 0.0657209 -0.0016415186 0.06716118
-0.07699945 -0.11782333 -0.055287592 0.033739384 -0.04492016 0.046324495 0.0788618 0.11057725
-0.051462773 0.035481676 -0.18342549 -0.04244102 -0.06428671 -0.090027854 0.0023042215 -0.07070139
0.047305044 0.029426578 -0.03086025 -0.018351948 -0.032477807 -0.012789899 -0.07084925 -0.015479237
-0.007244989 0.07635767 -0.016531296 0.0402802 -0.08427767 -0.043718368 -0.048510555 0.000564678

conv2.bias f4 [32]
00000000: df88 833d fef3 f7bc f3c3 c2bd 8e6e 913b
00000010: 92c9 f5bd 7bab 1e3d c8f4 023e 7060 1dbd
00000020: d7be 83bd 52d9 e53b 8664 8b3d 752a a0bd
00000030: 625c 1c39 4e86 c93c 549e 7abd 3b84 903d
00000040: 11c2 5ebd 8adf 983d 5b37 103e ca64 3e3d
00000050: ea1e 9b3d f5b1 033e 69ce f9bc a3a3 b1bd
00000060: 475e 23bd 9dd0 293c 485d 54bd 5dde 2ebd
00000070: 14b0 b43d bb86 82bd 4251 38bd 54db d83d
0.064225905 -0.030267712 -0.095100306 0.004438228 -0.12001337 0.038737755 0.12788689 -0.038422048
-0.06432884 0.007014432 0.06806283 -0.07820598 0.00014911735 0.024600174 -0.06118615 0.07056471
-0.054384295 0.07464512 0.14083616 0.04648284 0.07574256 0.12860854 -0.030493932 -0.08673789
-0.03988483 0.010364679 -0.051846772 -0.04269253 0.08822647 -0.06373354 -0.04499937 0.105887085

fc1.weight f4 [128, 32]
00000000: 7e3d a13d 6304 243e 1173 fdbd 4f6b 0d3e
00000010: 2f4a 7f3a ba85 d2bc b8da 31be 19aa 2c3d
00000020: 2fd9 143e e630 883d f7ea 9e3b 7c4d 04be
00000030: 3acc b7bd 4026 db3c 5d14 dc3d 040f f53c
00000040: 3848 9b3d 25b5 123d 2632 82bc 8c78 aebb
00000050: b4d3 e03c 5c11 30be 69cc 253e 6f3f 86bd
00000060: a11a 15be 59da a5bc 1e85 183e e921 ff3d
00000070: c0a9 22be 2ba7 43bd ccf7 3cbe c5d7 0ebe
00000080: 634b 3fbb 73b0 21be 0a28 20be 4d27 143e
00000090: 3ed1 b43c dd7f 9ebc 307f 96bd 5b77 c63d
000000a0: 6bbe 23be a1e9 81bd c477 123e 48f6 fbba
000000b0: f67a 823d 30c3 0abe 435b 0b3d 8c22 fb3c
000000c0: a343 9a3d 6eee c1bd 22cb ed3c 7823 d2bd
000000d0: dc84 8dbd d6f7 ba3d 2a8e 1dbd d595 d03c
000000e0: a3de ee3d dc0d 9bbd 24dc a0bd 9f90 8c3d
000000f0: 411e 3d3d a856 fe3c 5917 14be 758d d4bb
00000100: 4e5c 303e e7c4 40bd 39fc 68bd 1bdf 3b3f
00000110: 330e a0be efd6 473d 42e6 103e efe8 9ebc
00000120: 5501 353d 7170 f6bc 0cec 863d dfef 893d
00000130: 30c4 42be eb30 63bd 83fa 223d 3903 f73d
00000140: 82b0 e43c 3596 003e 20eb 853e 99d4 d8bd
00000150: 006a b53e 9765 1c3c dc4d 24bd bf45 61bd
00000160: 1384 15be a24a 523e 2b38 c4be c750 b9bd
00000170: a386 bdbd 01c5 02be eff9 5a3e 44ad 0fbe
00000180: 4f12 293e aec0 4a3e 236e e9bd 7e9a ff3e
00000190: 7af3 07be deab 9e3d 776c 1c3e d32a 123d
000001a0: 60bb f8bd 0c32 04bd a8fb 213d 8aab bbbe
000001b0: 0e8b d03c a0e0 09bd 4861 e1be d51d f0bc
000001c0: 2f80 b6bd c129 4a3e 20a1 793d 5a00 ef3b
000001d0: b8a5 c13d f656 eb3d a0db 713c b7b0 ad3d
000001e0: 6b5c 723d cb18 c53d 1da9 d6be 5fdf 5a3e
000001f0: c401 2f3e 3242 0fbf a8ad 473d 65bb 563d
00000200: 4506 3bbe b536 673c ba69 a6be 556e 8f3d
00000210: dc49 83be 9eb1 5bbe 8d26 bdbd 6085 173e
00000220: da83 8bbd e657 2ebe 6092 86bd ff5b acbd
00000230: 088d 293d 582c f73d 631d ec3d 088e 2abe
00000240: a87f 10be ef62 0abe 385d 3ebe 1b22 14be
00000250: 840a ef3d 5459 5cbe 6d72 b8bd 5029 d1bd
00000260: d06c e73c 9200 9bbd 9d51 1abe 134a 8f3d
00000270: 57f7 10bd b840 193e 5e41 933d 8149 c73d
00000280: 1aa6 893d e78d b93c 73ca be3e a321 0cbf
00000290: 2947 263f 38f4 7bbd be8c 66bc 0711 e03d
000002a0: b2e1 dabd 7510 fb3d 39f4 91bd 1622 3f3d
000002b0: 1776 7e3d da2f c63c f89c 1d3e b809 22bd
000002c0: b63b 0ebc 4ac0 a13d 7c74 98bd 4863 41bd
000002d0: 2bcf 55be 0219 2d3e 59dc 0abe ae9b a83d
000002e0: 584c d33d b45a 84be d1d6 393f e699 c13d
000002f0: ef5a 42be 09b5 b53e b7ab a43d 3bc4 4f3e
00000300: 9248 663d cf28 763e bffd f43d fbd8 2bbf
00000310: 2be2 bf3d 2265 3b3d ccab 223e e69e 26be
00000320: 83cd 64be 524d a43d 599c 3a3e 3b8d 44be
00000330: 6880 c23e 91d5 babd c7ae bdbe c60a d1bd
00000340: 8220 2c3e 27d7 9dbd 6e81 693e abe1 483c
00000350: 1f76 213e f477 92bd ba9b abbd 6ae7 c03d
00000360: aa01 51be 59d6 63bc 6a7c ba3e 14fc 22be
00000370: e983 1e3e baad 72be 8c58 003e 8c73 4dbe
00000380: 48c9 4f3d 1d2b f5bd ebbb 8d3e a926 3f3e
00000390: 14a4 103f 7024 893d cc06 993d 993f 273e
000003a0: cbcf 043e 82cb c13d c288 ebbd efc1 a3bc
000003b0: 45ea 11be 343c db3d 0d27 49ba ab3a 4f3d
000003c0: 5879 413e 4e57 b63d b1fb 813e 5377 643d
000003d0: 0716 ab3e ef0b 183d 7a43 2d3e cf15 c2bd
000003e0: a13d 34be 4f3a 6c3e 2c81 1a3f c312 133d
000003f0: c6f0 46bd 63d9 b33d a899 fe3d 7eb2 38be
0.07873057 0.16017298 -0.12375463 0.13810466 0.0009738532 -0.025698531 -0.17368591 0.042154405
0.14535974 0.06649952 0.0048497873 -0.12920183 -0.089745 0.026751637 0.107460715 0.029914387
0.07582134 0.035817284 -0.015893053 -0.005324429 0.027444698 -0.17194122 0.16191258 -0.06555068
-0.1456094 -0.020245718 0.1489453 0.1245764 -0.15885067 -0.047766846 -0.18453902 -0.13949497
-0.002918922 -0.15789966 -0.15640274 0.14468117 0.02207243 -0.01934808 -0.07348478 0.09690734
-0.15990607 -0.06343389 0.143035 -0.0019223178 0.06371109 -0.1355102 0.03402258 0.030656122
0.07532432 -0.09469305 0.029027525 -0.102606714 -0.069101065 0.09129302 -0.038465656 0.02546207
0.11663558 -0.07571003 -0.078544885 0.06863522 0.04617143 0.03104718 -0.14462031 -0.0064865896
0.17222711 -0.04706278 -0.056881163 0.73387307 -0.31260833 0.04878896 0.14150336 -0.01939818
0.044190723 -0.030082913 0.06587991 0.06735205 -0.19020152 -0.055466574 0.039789688 0.120611615
0.027916197 0.125573 0.2615595 -0.10587425 0.35432434 0.009545705 -0.040113315 -0.054998156
-0.14601164 0.20536283 -0.38324103 -0.0904861 -0.092541955 -0.12770464 0.21384405 -0.1403094
0.1651089 0.19800064 -0.1139796 0.49922556 -0.13276473 0.07747625 0.15275751 0.03568537
-0.12145114 -0.03227429 0.03954664 -0.3665431 0.025456931 -0.033661485 -0.44019532 -0.0293111
-0.08911168 0.1974249 0.060944676 0.007293743 0.094554365 0.11491196 0.014761835 0.08480971
0.059170168 0.096238695 -0.41925898 0.21374272 0.17090517 -0.5596038 0.048749596 0.052424807
-0.1826411 0.014112164 -0.32502538 0.07003466 -0.25642288 -0.21454474 -0.092358686 0.14796972
-0.06812258 -0.17025718 -0.065708876 -0.08415984 0.041394264 0.12069005 0.115290426 -0.16655743
-0.14111197 -0.13514303 -0.18590248 -0.14466135 0.116719276 -0.21518451 -0.090062 -0.10212958
0.028250128 -0.07568468 -0.15070195 0.069965504 -0.03539213 0.14966094 0.07190202 0.09730817
0.067211345 0.022650672 0.37263831 -0.54738826 0.6495233 -0.061512202 -0.0140716415 0.10940748
-0.10687579 0.12258998 -0.0712666 0.046663366 0.062124338 0.02419274 0.1539191 -0.03956005
-0.008681228 0.07898004 -0.07444093 -0.047213823 -0.2087981 0.16904071 -0.13560618 0.082328185
0.10317296 -0.2585045 0.7259341 0.09453182 -0.18980001 0.3548968 0.080405645 0.202897
0.056221552 0.24039005 0.11962461 -0.6712796 0.0936931 0.045750745 0.15885848 -0.16271552
-0.22344021 0.0802256 0.18223704 -0.191945 0.3798859 -0.09122766 -0.37047407 -0.10207133
0.16809276 -0.07707053 0.2280328 0.012260835 0.15767716 -0.071517855 -0.08379312 0.09419139
-0.20410791 -0.013906085 0.36423045 -0.15916473 0.15480007 -0.23699084 0.12533778 -0.20063609
0.050729066 -0.11971114 0.27682433 0.18667091 0.56500363 0.06696403 0.074719995 0.16332854
0.12969892 0.09462644 -0.11500694 -0.019989936 -0.14249523 0.10704842 -0.00076733605 0.05059306
0.18893945 0.08903371 0.25387338 0.05577786 0.33415243 0.037120756 0.16920272 -0.09476816
-0.17601635 0.23069118 0.6035335 0.035906564 -0.048569463 0.087816976 0.12431651 -0.1803684

fc1.bias f4 [128]
00000000: 492d 4abc d2d5 2fbe 73ed 2e3e fd35 69bd
00000010: e547 0d3e deea 61be f4ce 623c 7ab5 5d3c
00000020: 7c60 5d3e 9eb3 ff3d 3f75 003d b600 ed3d
00000030: 6eb9 543e f936 cfbd 264f fabc 6fbe e2bc
00000040: 3973 263d 9e8a 303c f1d5 f7bc ed84 3c3e
00000050: 5c87 963d bc69 bd3c 1ced 4e3d 9383 d8bd
00000060: a761 f9bd fd3e 173e c9f3 f6bc b0b2 163b
00000070: 5c10 ec3d a124 ab3d 737b bb3c 92d5 51bc
00000080: 9c81 9a3d 4cf2 003e f21f 6bbe 57e1 01be
00000090: a28e 7dbd acde 60bd 855e 1dbe 96be 153e
000000a0: f23a 18be 77f0 3abe 7f0f e0bd 5c18 bbbc
000000b0: 8d7f 0cbe 52e9 f6bd b30c bdbd e620 d23d
000000c0: c730 7e3e 26de 5e3c d078 0d3d 9fd9 813d
000000d0: d5e6 1c3e 8cf8 afbd a445 ae3d 74e4 a6ba
000000e0: 2c9f 753e c76d 293e 78c4 32be 0551 163d
000000f0: e4bf 183e 24f9 5ebd d47d f0bb 0813 863d
00000100: 2d53 7c3c c0d7 ca3c 4cc9 17be 4af6 153e
00000110: d52d b73d d58e 603e 0650 33bd 498a e6bd
00000120: 83f6 563e 19e9 a6bd 56ad 38bd 601c f6bd
00000130: caed 97bd 3d22 483c 640e 423e 0615 c0bd
00000140: 41ab 593e 4937 4abd c096 09be b522 e93d
00000150: 0708 a1bd d013 dc3d 7a0c 753e b91a 25be
00000160: 420c 2e3e cf67 52bd 617e 27bd 98c2 603e
00000170: 9ec2 a73d 3851 0d3e 4461 053e 04a3 1d3e
00000180: 7e15 193e 0d87 06be 461c 593e d88c f2bd
00000190: 8c5c 0bbc 384c 063e 51cd c83d 60ed ba3b
000001a0: f95f 5bbc 22ec 873d 4151 e93d de99 293e
000001b0: 2b5c 733e b0a1 3d3e 9d0e a13c 5dec 30be
000001c0: 661b 25be 3b02 4e3e 4991 e5bd 7b83 3abe
000001d0: 17fa 9f3d 2e81 1fbe 0757 1fbe a8c7 d63c
000001e0: ea2a d43d e76c 8abd db8b 1fbd 62c5 ba3d
000001f0: 1ed6 5b3e adc6 15be 910a a3bd e654 9c3d
-0.012339898 -0.1717141 0.17082767 -0.056936253 0.13796957 -0.22062251 0.013843287 0.013532037
0.21618837 0.12485431 0.031361815 0.11572401 0.20773861 -0.10117907 -0.030555319 -0.027678696
0.04063723 0.010775236 -0.030253382 0.18410082 0.073500365 0.023121707 0.050519094 -0.10571971
-0.12176829 0.14770122 -0.030145543 0.002299469 0.11526558 0.08356596 0.022886014 -0.012807267
0.07544252 0.12592429 -0.22961405 -0.12683617 -0.061903603 -0.054899856 -0.15368088 0.14623484
-0.14866236 -0.18255793 -0.10940456 -0.022838764 -0.13720532 -0.12056221 -0.09230938 0.10260181
0.24823295 0.013602769 0.034539044 0.06340336 0.1532243 -0.085923284 0.08509377 -0.0012732879
0.239865 0.16545783 -0.1745776 0.03669836 0.1491695 -0.054436818 -0.0073392186 0.06546599
0.01540069 0.02476108 -0.14822882 0.14644733 0.08944289 0.21929486 -0.04377749 -0.112568446
0.20992474 -0.081499286 -0.04508718 -0.12017131 -0.074184015 0.012215194 0.18950802 -0.0937901
0.21256734 -0.04936913 -0.13436413 0.11383573 -0.07862859 0.107459664 0.2393054 -0.16123475
0.16996863 -0.05136853 -0.04089201 0.21949232 0.08191417 0.13800514 0.13025385 0.15394217
0.14949605 -0.13137455 0.21202192 -0.1184327 -0.008505952 0.13115013 0.09804786 0.005704567
-0.013389581 0.06636836 0.11392451 0.16562602 0.23765628 0.1851871 0.019660288 -0.17277665
-0.16123733 0.20118038 -0.112093516 -0.18214218 0.07811373 -0.15576622 -0.15560542 0.02621825
0.10359748 -0.06759053 -0.038951736 0.09119679 0.21468398 -0.1462657 -0.07961 0.076333806

fc2.weight f4 [3, 128]
00000000: ce55 8fbc 0147 9e3d 213b 2d3e 3f0e c83d
00000010: 424f 143d 4e5c 82be 2fbc 35be 45ec dc3d
00000020: c9d6 4a3d 28d4 923d 8252 9abc f0f5 bc3d
00000030: 5a62 7c3d da72 4cbc 1a1e bf3e 2c83 7cbd
00000040: 59ff 21bd 7684 4c3d 88ec 5ebd d4d6 ce3d
00000050: dcc2 5dbe 9b62 d3bb 0aca 97be 66aa 9fbd
00000060: 6eee 26bd c1b6 36bd 42f9 c43d 8834 2abd
00000070: 65a0 e43c 578e 34bd 1da4 123d bef3 a53d
00000080: ce3e be3d 52d1 093e b8d1 0fbe 8779 83be
00000090: 2767 94bc f0e0 693d 5a2b b6bd 712d c63d
000000a0: 1a3b 433d 5707 c7bb 31b1 183e 851a 8cbd
000000b0: 5c1a bebc 1e5c 3a3c 7544 733d 6ca8 da3d
000000c0: 3cf2 fd3d 1542 283d d60b 48bc d965 bfbc
000000d0: d64d cd3d 7d82 5f3b 656c bd3d dbc3 603c
000000e0: 9f26 f33c 191a 623c 3445 12bd 2862 a43d
000000f0: f935 6fbd 8a13 253c 3908 de3c d3b8 aabc
00000100: a989 15bd 67bc 833d 215f 413d bfa0 b23a
00000110: 24d3 11bb 0def 5a3b f0bd dcbe 0401 8b3c
00000120: 05fe cc3d aacc 28bd 361f 51bd daf4 6dbc
00000130: a082 adbd 038d 73be 1c9e e53d 9cd4 073d
00000140: f5b7 a73d 0680 a33d 3ddf b7bc c28f b03d
00000150: 3fbc a4bd 529f 8bbd 1e21 8a3e 0a4d 553d
00000160: a359 f23d 7543 9f3c 3047 98bd 1619 0a3e
00000170: c48f 8abd aa8e 8a3c 39c6 9abd eb94 343e
00000180: c03e 1e3d ccfb 90bd 6830 ca3e 13a3 1fbf
00000190: f2f7 3e3e 965e 7cbc a07d 55bd 8374 3abd
000001a0: b49f 9a3d cc3b 82bb c156 773d 567b c3bc
000001b0: d40a 083e 3b8d 05bc c5a0 a93d 9a11 72bb
000001c0: e69c bfbd c82c 133e ea20 5dbe 57c3 b33e
000001d0: f942 89bc b496 86be 9f8b 22bd df5d 03bc
000001e0: 7fc7 bd3d ebbf c9bd fc17 6cbd 997f 033e
000001f0: 7a43 cb3c 2f46 c8bc ce65 6f3d b442 08be
00000200: a1ea 74bd 5867 993d c4d4 9fbd 0a45 50be
00000210: 6cb3 a6bd 814b 7e3e ba7e 673e 575e f43d
00000220: 4827 b03d 3138 9fbd dfb6 9c3d a6a2 a1bd
00000230: aa74 c8bd bd81 a53d 0674 aabe f4b7 dc3d
00000240: 86da 6c3d 9dd0 a2bd bddc 92bd e5c4 02be
00000250: 696c 633e 05f3 73bd 8b89 ab3e 832c 8cbd
00000260: ef57 6ebd 63c2 863d 863c 7a3c 6475 083e
00000270: 4a5d 943d 3c50 26bd 7040 203c 2a07 c8bc
00000280: 4769 96bc 8d6f 33bd 19de 4a3d b07b 983e
00000290: 842f aebd 3b90 ce3c 8dc2 ba3d a841 77bc
000002a0: f8e2 b23d 5ef8 a13c d999 8b3c 2061 4b3d
000002b0: 81a3 9cbd 3f4c 9dbd c951 cd3c f560 cdbd
000002c0: 15d1 b2bd e948 76bd d2a0 833d 21af 783d
000002d0: f99f 693c 4c4a 65bd 6c52 8cbe 71cf e43d
000002e0: 42d5 04be abb8 91bc aa41 993d f700 1abe
000002f0: 74bd 963d 65fb e53d 4d4d 373c 7242 64bd
00000300: b825 15be d16a 1fbc bc81 733c 4b38 c13c
00000310: da9c 9d3b 6d45 17be 5c79 d63e c296 c83d
00000320: 6a24 12be 1de9 9b3c d899 dabd 3214 40bd
00000330: 9b4e bcbc 1a90 8b3e b11b bfbd 5529 d63d
00000340: 78b8 bbbd 5e20 b2bd 3373 6f3d bbe7 c4bd
00000350: 8ce9 56bd 51ed 20bd 214d 12be b6e5 24bd
00000360: 371c eabd 868d 5cbd 73db d63b 59c8 a83c
00000370: 3cad 06bd 04b8 e239 6b16 21bd c2cf 29bd
00000380: ab9e e9bd d753 263e 8b92 f9be 9840 393f
00000390: 55bb 0cbe 49d7 9bbd bfb1 33bc 6a9d 3a3d
000003a0: 4deb 0ebd db0a e3bd 7283 ffbd 883b f0bd
000003b0: 82aa 43be 1856 2abb 6e13 87bd 4c52 12bd
000003c0: 0d1f 81bc f1bd 2cbe 92ff 963e 6d62 8fbe
000003d0: 9233 863d 1c09 ac3e a010 d83d a5a0 8d3d
000003e0: 4cbe d1bd 812f 013e 42ff 15bc 187a bdbd
000003f0: 9f1c b1bd 2579 6b3c 8400 01be ff91 943e
-0.01749697 0.07728387 0.16917087 0.09768342 0.0362084 -0.25461048 -0.17747568 0.10787252
0.04952124 0.07169372 -0.01883817 0.09226596 0.061617233 -0.012478555 0.37327653 -0.061648533
-0.03955016 0.049931012 -0.054424793 0.10099569 -0.21656364 -0.0064509637 -0.2964633 -0.07796173
-0.040754728 -0.04460788 0.09617855 -0.041554004 0.027908513 -0.04408106 0.035801042 0.08103131
0.09289323 0.13458756 -0.14044845 -0.25678656 -0.018115593 0.057099283 -0.088949874 0.09676636
0.047663786 -0.006073873 0.14911343 -0.06840996 -0.023205929 0.0113745015 0.059391458 0.10676655
0.12399718 0.041078646 -0.012209853 -0.023363994 0.10024612 0.0034104877 0.0924919 0.013718571
0.029681502 0.0138001675 -0.03571053 0.08026534 -0.05840108 0.010075459 0.02710353 -0.020840084
-0.036508236 0.06432419 0.047209863 0.0013628228 -0.0022251094 0.0033406646 -0.4311366 0.016968258
0.10009388 -0.041210808 -0.051055156 -0.014523709 -0.0847218 -0.2378426 0.112117976 0.033161744
0.08189384 0.07983403 -0.022445315 0.086211696 -0.080437176 -0.06817497 0.2697839 0.052075423
0.11833503 0.019441346 -0.07435453 0.13486132 -0.06765702 0.01691373 -0.07557339 0.17634933
0.03863406 -0.070792764 0.39490056 -0.62358207 0.18649271 -0.01540341 -0.05212176 -0.04552127
0.07549992 -0.0039744135 0.06038547 -0.023862522 0.1328538 -0.008151348 0.082826175 -0.003693676
-0.09356098 0.14372551 -0.21594587 0.3510997 -0.016755568 -0.26286852 -0.039683934 -0.008017986
0.092665665 -0.098510586 -0.05764006 0.12841643 0.024812449 -0.024447529 0.058446698 -0.13306695
-0.059794072 0.074904144 -0.07804254 -0.20338836 -0.08139691 0.2483349 0.22606936 0.119320564
0.08601242 -0.077743895 0.076520674 -0.07892351 -0.09787877 0.08081386 -0.33291644 0.10777274
0.057825588 -0.07949946 -0.07171009 -0.12770422 0.22209324 -0.059557933 0.33503374 -0.068444274
-0.05818933 0.06580045 0.015273219 0.13326031 0.07244356 -0.04060386 0.009780988 -0.024417479
-0.018360747 -0.043807555 0.049528215 0.29781866 -0.08505157 0.025215259 0.09119139 -0.015091337
0.08734697 0.019771751 0.017041134 0.049653172 -0.076483734 -0.076805584 0.025063412 -0.10028259
-0.087312855 -0.060128126 0.064271584 0.06071389 0.014259332 -0.05597906 -0.27406633 0.11172379
-0.12971976 -0.017788252 0.074832276 -0.1503943 0.07360354 0.1122959 0.011187864 -0.05572743
-0.1456517 -0.009730057 0.014862474 0.023586413 0.004809958 -0.14772578 0.41889465 0.0979438
-0.14271703 0.019032056 -0.106738746 -0.04689426 -0.0229867 0.27258378 -0.093314536 0.10457102
-0.09166044 -0.0869758 0.058459472 -0.096145116 -0.05246882 -0.039288823 -0.14287235 -0.040258132
-0.11431163 -0.053845905 0.006556922 0.020603346 -0.032880053 0.0004324318 -0.03932802 -0.0414579
-0.11407217 0.1624292 -0.48744616 0.7236419 -0.13743336 -0.07609422 -0.010967671 0.045560278
-0.03489237 -0.11086055 -0.12476243 -0.11730105 -0.19108012 -0.0025991257 -0.06595503 -0.035723016
-0.015761876 -0.16869332 0.2949186 -0.2800478 0.06552805 0.336007 0.10550046 0.06915406
-0.102413744 0.12615778 -0.0091550965 -0.09251803 -0.08648037 0.014372145 -0.12597853 0.29017636

fc2.bias f4 [3]
00000000: 981d 563c 74b6 ae3c c4af 473c
0.013068579 0.021327235 0.012187902
